src/uploads/handmodel.pth (torch, 69660 bytes, 6 tensors)

fc1.weight f4 [128, 63]
0	0x3d388cb0	0.045056045
1	0x3e395422	0.180985
2	0x3eb19ccf	0.34689948
3	0xbe1b3ee9	-0.15160717
4	0x3e6a9e6d	0.22911997
5	0x3ead08da	0.33795816
6	0xbe2e5562	-0.17024758
7	0xbd24d826	-0.040245198
8	0x3c9c04a0	0.019045174
9	0xbbb2363c	-0.005438594
10	0x3deab587	0.11460405
11	0xbbf1257e	-0.0073592057
12	0x3d7f672a	0.062354244
13	0x3d5d04c7	0.053959634
14	0xbeb6b03f	-0.3568134
15	0xbe2ac1ee	-0.16675541
16	0xbe8fc46f	-0.28079554
17	0xbe97ffbf	-0.29687306
18	0xbec60622	-0.38676554
19	0xbe84c978	-0.25934958
20	0xbe98850c	-0.29789007
21	0xbe3dfcea	-0.1855351
22	0x3dab292d	0.08357463
23	0xbe5f042a	-0.21778932
24	0xbe0e8048	-0.13916123
25	0x3e22ce5e	0.15899035
26	0xbdcabdf9	-0.09899516
27	0x3c1c3049	0.009532996
28	0xbea76d4a	-0.32700568
29	0xbd4a8a76	-0.049448453
30	0xbe1aae56	-0.15105566
31	0xbf2139ad	-0.6297863
32	0xbdec7e57	-0.11547535
33	0xbe0412c0	-0.12897778
34	0xbe36fb0a	-0.17869201
35	0xbd829251	-0.06375564
36	0xba28158a	-0.0006411901
37	0x3e474f60	0.19463873
38	0x3e608006	0.21923837
39	0xbc104348	-0.008805104
40	0xbe4b17f9	-0.19833364
41	0xbe1c5ced	-0.15269823
42	0xbe4abcf1	-0.19798638
43	0xbf19e420	-0.60113716
44	0xbdf02f9f	-0.11727833
45	0x3cb94f3e	0.022620793
46	0xbe89fc9f	-0.26950547
47	0x3d37a9ad	0.04483955
48	0xbd957584	-0.07297805
49	0x3c9e26ba	0.019305576
50	0xbb85dc5a	-0.004085106
51	0xbd8b5a46	-0.06804328
52	0xbd7d89c5	-0.061898965
53	0x3e05419d	0.1301331
54	0x3dba144a	0.09085901
55	0xbe8b487b	-0.27203736
56	0x3cdeaedf	0.027182994
57	0x3e028950	0.12747693
58	0xbce876e2	-0.028377
59	0xbdc8dbd7	-0.09807556
60	0x3cd63516	0.02614836
61	0x3ed0d7e8	0.40789723
62	0xbbee810d	-0.0072785676
63	0xbe186bc9	-0.14884867
64	0xbdfd0dd7	-0.12356155
65	0x3f025a8c	0.50919414
66	0xbdb36bdc	-0.08760807
67	0x3e32eef1	0.17473961
68	0x3f06127f	0.5237197
69	0xbc74e141	-0.014946283
70	0x3df9e764	0.122023374
71	0x3e855131	0.26038507
72	0xbca07ede	-0.019591745
73	0x3e5bf95a	0.21481839
74	0x3e28263c	0.16420835
75	0x3e7436b3	0.23848991
76	0x3defb7cd	0.11704979
77	0xbd0ea758	-0.03482756
78	0x3ca13124	0.019676752
79	0xbd8e0b1e	-0.06935714
80	0xbea40b0a	-0.32039672
81	0xbdbf184a	-0.09330805
82	0xbe9c1098	-0.3048141
83	0xbed5d3ce	-0.41763157
84	0x3dceb946	0.10093932
85	0xbd91c94c	-0.071184725
86	0xbe256a7a	-0.16153899
87	0x3e895b1c	0.26827323
88	0x3e63519a	0.22199097
89	0xbe032494	-0.12806922
90	0xbdee3ea7	-0.11633044
91	0xbe51a35c	-0.20472473
92	0xbe004c1f	-0.12529038
93	0xbd590396	-0.052981935
94	0xbf7eb0a0	-0.9948826
95	0xbede659c	-0.43436897
96	0x3d85b125	0.06527928
97	0xbec4aeb6	-0.38414544
98	0xbe3c994b	-0.18417852
99	0x3e33734c	0.17524451
100	0x3d3bcd69	0.04585019
101	0x3e29d10e	0.16583654
102	0x3e61e4cf	0.2205994
103	0xbe51eadb	-0.20499747
104	0x3d626462	0.055271514
105	0x3d2fab3e	0.04288792
106	0xbf70cfb7	-0.9406695
107	0xbebbff1b	-0.36718068
108	0x3e2193f3	0.15779094
109	0xbf5ff864	-0.8748839
110	0x3cd4baa3	0.025967902
111	0x3e02fe9e	0.12792441
112	0xbe5a6d33	-0.21330719
113	0x3f1a1b95	0.60198337
114	0x3e2c7901	0.16843034
115	0xbe54bf9a	-0.20776215
116	0x3d22dc5b	0.03976093
117	0x3ddc4e69	0.10757143
118	0xbf0e8fb9	-0.55688053
119	0xbd0b5b84	-0.034022823
120	0x3ddd670e	0.10810672
121	0xbe3bfa0d	-0.18357106
122	0x3e431e60	0.19054556
123	0x3ea49323	0.32143506
124	0xbd8da580	-0.06916332
125	0x3efba455	0.49148813
126	0xbde81b84	-0.11333373
127	0xbc4d09c0	-0.012514532
128	0x3da78c3b	0.08181044
129	0x3f21ab99	0.6315246
130	0xbe3d3eee	-0.18481037
131	0xbdfca98b	-0.12337025
132	0x3ecfdb0e	0.40596813
133	0xbe3310c5	-0.17486866
134	0xbdf3c958	-0.11903638
135	0x3da2b9a7	0.079455666
136	0xbe824b17	-0.25447914
137	0xbd962467	-0.07331162
138	0xbf084b19	-0.5323959
139	0xbea3c365	-0.31985012
140	0xbd246084	-0.040131107
141	0x3f16a2b9	0.58842045
142	0x3d1da867	0.03849068
143	0xbe097ef2	-0.13427332
144	0x3f0a5bdc	0.54046416
145	0x3e471323	0.19440894
146	0xbd37fde2	-0.044919856
147	0x3f10a88f	0.565072
148	0x3eb78a3a	0.35847646
149	0xbe49afe2	-0.19696
150	0x3ea93df5	0.33055082
151	0x3e94dd74	0.29075205
152	0xbe64285d	-0.22281022
153	0x3ea7b9c5	0.32758918
154	0x3d098976	0.03357836
155	0xbdc298ad	-0.09501777
156	0x3ee6b1a9	0.4505742
157	0x3ed5d284	0.41762173
158	0xbdbba14f	-0.091616265
159	0x3ecc2559	0.39872244
160	0xbd3e9b66	-0.04653492
161	0xbe09f45f	-0.13472126
162	0x3e9b7e38	0.30369735
163	0xbee4f177	-0.44715473
164	0x3d60df26	0.05490031
165	0xbe56a55f	-0.20961522
166	0x3d1ccb77	0.038279977
167	0x3e451c1f	0.19249009
168	0x3df3d3a8	0.119056046
169	0x3e964e18	0.29356456
170	0x3c88ae42	0.016684655
171	0xbc3d2ab5	-0.011545827
172	0x3c7b65a6	0.015344059
173	0xbd8fe45f	-0.0702598
174	0xbac74a2a	-0.0015204598
175	0xbe38b31f	-0.1803708
176	0x3e8df871	0.27728608
177	0xbfad9143	-1.3559955
178	0x3c85fa2d	0.016354645
179	0xbc1aab1a	-0.009440208
180	0xbf56c9bd	-0.8390158
181	0x3eb4e11c	0.35327995
182	0x3dc1162c	0.09428057
183	0xbf280856	-0.6563772
184	0x3d8794a5	0.066201486
185	0x3e2d7ed8	0.16942918
186	0xbf172ba8	-0.5905099
187	0xbe4dcc70	-0.20097518
188	0x3dafde03	0.08587267
189	0x3d8f2722	0.06989886
190	0x3dbce1a4	0.09222725
191	0x3a0d7077	0.0005395482
192	0xbe2263b3	-0.15858345
193	0x3e558ef7	0.20855318
194	0x3db0332f	0.086035125
195	0xbda597e9	-0.08085615
196	0x3e457825	0.19284113
197	0xbb16484e	-0.002293128
198	0x3e4bc116	0.19897875
199	0x3d4fa049	0.05068997
200	0x3acbd88a	0.0015552205
201	0x3ee4138b	0.4454616
202	0xbe689165	-0.22711714
203	0xbe4b5dfe	-0.19860074
204	0xbe19c59d	-0.1501679
205	0x3d954402	0.07288362
206	0x3e269ed4	0.16271526
207	0xbe1e47a1	-0.15457012
208	0xbe28648f	-0.1644461
209	0x3e87fc40	0.2655964
210	0xbe80587f	-0.25067517
211	0xbdecfb6d	-0.11571393
212	0x3e8d3b5d	0.27584353
213	0xbd6e00f8	-0.058106393
214	0xbcb93e25	-0.02261264
215	0x3e894b9b	0.26815495
216	0xbe03ae16	-0.12859377
217	0xbdb9f6df	-0.0908029
218	0x3df9daa9	0.12199909
219	0xbec53007	-0.38513204
220	0xbe0550fd	-0.13019176
221	0x3b815001	0.003946305
222	0xbe7eec3a	-0.24894801
223	0x3e334a1d	0.1750874
224	0x3da1c85e	0.07899545
225	0x3dc909f8	0.098163545
226	0x3f1d262c	0.6138637
227	0x3e832904	0.2561723
228	0x3dc32f19	0.095304675
229	0xbe099aa6	-0.134379
230	0x3c70ae35	0.014689972
231	0xbd0d2052	-0.03445465
232	0xbe7edb64	-0.24888378
233	0xbe14baa6	-0.14524326
234	0x3dfc693c	0.12324759
235	0x3e4f2947	0.2023059
236	0xbe3a1356	-0.18171439
237	0x3e8c8762	0.2744704
238	0x3ed985ae	0.42484802
239	0x3db6881a	0.08912678
240	0x3e1a095d	0.15042634
241	0x3ce9881f	0.02850729
242	0x3e0c0800	0.13674927
243	0xbe3c11b6	-0.18366131
244	0xbe3fc501	-0.18727495
245	0xbcebde18	-0.028792426
246	0xbdc20715	-0.09474007
247	0x3e823667	0.2543213
248	0x3d42412f	0.047425445
249	0x3de66cf2	0.112512484
250	0x3f44fb30	0.7694578
251	0x3dcc3c44	0.09972432
252	0x3e1ee782	0.15518
253	0x3c4b0b3c	0.012392815
254	0x3eaad1c9	0.33363178
255	0x3e9b449c	0.30325782

fc1.bias f4 [128]
0	0x3e479d53	0.19493608
1	0xbbc6aaab	-0.0060628257
2	0xbdfd55c7	-0.12369876
3	0x3e2e4659	0.17019023
4	0x3e2fac25	0.17155512
5	0xbc20047f	-0.009766697
6	0xbe58680d	-0.21133442
7	0xbdc2a548	-0.09504181
8	0x3dee82ef	0.11646067
9	0xbe74e994	-0.23917228
10	0x3c1dd520	0.0096333325
11	0x3e28f445	0.16499431
12	0xbe0d3d19	-0.13792838
13	0x3dbebaa4	0.093129426
14	0xbdc9268f	-0.098218076
15	0xbdbba5f7	-0.09162515
16	0x3c9def58	0.019279167
17	0xbd1c1141	-0.038102392
18	0x3ce16671	0.027514668
19	0x3e9f7f33	0.31151733
20	0x3e020817	0.12698399
21	0xbdd512f7	-0.10404008
22	0xbde0a83d	-0.10969589
23	0xbdaf26c0	-0.08552313
24	0x3d222a5e	0.039591186
25	0x3e6f9e37	0.23400198
26	0x3dc901c8	0.09814793
27	0x3d2d05f7	0.042242017
28	0xbe158129	-0.14600052
29	0xbd958958	-0.07301587
30	0x3c26b4d0	0.010174945
31	0xbe072cb7	-0.13200651
32	0xbd544294	-0.051821306
33	0x3e0bfabf	0.13669871
34	0x3d102eb2	0.035200782
35	0xbdb496e0	-0.088178396
36	0x3e304f95	0.17217858
37	0xbe066e27	-0.13127957
38	0xbd78018d	-0.060548354
39	0x3e351118	0.17682302
40	0x3d9dacb9	0.0769896
41	0xbd80d783	-0.062911056
42	0x3d83c10a	0.06433304
43	0x3cdaf039	0.026725875
44	0xbc69e7c6	-0.0142764505
45	0xbe2c76bb	-0.16842167
46	0xbd8cc936	-0.068743154
47	0x3dc263be	0.094916806
48	0x3deee82c	0.11665377
49	0xbdfcc66c	-0.123425335
50	0x3db852ad	0.09000144
51	0xbe1b4b54	-0.15165454
52	0xbcdfdb61	-0.027326288
53	0x3da39bf5	0.07988731
54	0xbd5313a4	-0.051532403
55	0x3d926ae2	0.071492925
56	0x3dc3c7b6	0.09559576
57	0x3e47a414	0.19496185
58	0xbdaaac0f	-0.08333599
59	0x3dd9d1c6	0.10635714
60	0xbccbe0b9	-0.02488743
61	0x3d6a54fe	0.05720996
62	0xbdb780b9	-0.08960099
63	0x3d80911c	0.062776774
64	0xbdf6b9e0	-0.120471716
65	0xbc861508	-0.01636745
66	0xbdefdee9	-0.117124386
67	0x3e297003	0.16546635
68	0x3de1f3b1	0.110328086
69	0xbd1d4a46	-0.03840091
70	0xbb3e35fa	-0.0029023872
71	0xbe5221c6	-0.20520696
72	0x3b35f8bc	0.0027766665
73	0xbe07e34b	-0.13270299
74	0x3cc27db8	0.023741588
75	0x3e059a4d	0.13047142
76	0x3c0c2831	0.008554504
77	0xbc8befe0	-0.017082155
78	0x3e37ae63	0.17937617
79	0xbdea9f7e	-0.11456202
80	0xbe59a3e3	-0.21253924
81	0xbd522235	-0.051302154
82	0x3e5df858	0.21676767
83	0xbdd22270	-0.10260475
84	0xbe0e944f	-0.13923763
85	0x3e8af8b6	0.27142876
86	0xbdf4c09a	-0.11950798
87	0x3d9b0247	0.07568794
88	0xbc8d4af9	-0.017247664
89	0xbca3bc4d	-0.01998725
90	0x3e1d35e8	0.15352595
91	0x3e2f55da	0.17122594
92	0x3e064de9	0.13115658
93	0xbdda1e30	-0.10650289
94	0x3d88b10e	0.066743955
95	0x3d68dfd8	0.0568541
96	0x3ba1fd0e	0.0049434965
97	0xbd0e5021	-0.034744386
98	0xbe1ac930	-0.1511581
99	0xbd6593b1	-0.056049053
100	0xbd339846	-0.04384639
101	0xbca4650a	-0.02006771
102	0x3e6968bc	0.22793859
103	0xbc92c586	-0.017916452
104	0x3db44438	0.08802074
105	0x3cf8d051	0.03037277
106	0xbe1915c4	-0.14949709
107	0xbe312864	-0.17300564
108	0xbc9aa5bd	-0.018877858
109	0x3da36664	0.07978514
110	0xbdd7b7ac	-0.105330795
111	0xbcc129a9	-0.023579435
112	0x3e275b80	0.16343498
113	0xbe652b10	-0.22379708
114	0xbe739b6d	-0.23789759
115	0x3e95c233	0.29249725
116	0x3a95c1ea	0.0011425589
117	0x3d98da74	0.074635416
118	0xbd6a574e	-0.057212166
119	0x3e702b5d	0.23454042
120	0x3b6f8bb8	0.0036551785
121	0x3df13c0e	0.11779033
122	0xbd5c36fb	-0.05376337
123	0xbd11ac47	-0.035564687
124	0x3d66a87f	0.056313034
125	0x3d30eef5	0.043196637
126	0xbbad75b0	-0.0052935705
127	0x3c901c03	0.017591482

fc2.weight f4 [64, 128]
0	0x3d9f2a91	0.07771791
1	0xbd54b4f4	-0.051930383
2	0xbdd14067	-0.10217362
3	0x3da6cd2c	0.08144602
4	0xbd8cfed5	-0.06884543
5	0xbd6b265a	-0.05740962
6	0xbd439c7f	-0.04775667
7	0x3d7b569e	0.0613619
8	0xbadf053d	-0.0017015111
9	0x3e17b6f8	0.14815891
10	0xbd24f6b7	-0.040274348
11	0xbde04504	-0.10950664
12	0x3d64eea2	0.05589164
13	0x3e002491	0.12513949
14	0xbd9af3bf	-0.07566022
15	0xbecbf90f	-0.39838454
16	0xbdad1ff0	-0.08453357
17	0xbc1f57f1	-0.009725557
18	0xbde3bab3	-0.111195944
19	0xbdfe1737	-0.12406772
20	0x3cb602f7	0.02221821
21	0xbda3985d	-0.07988045
22	0x3d5c457b	0.0537772
23	0x3cd5fb21	0.026120724
24	0xbd9886d5	-0.07447592
25	0x3cedcfad	0.029029692
26	0xbe08e7c6	-0.13369665
27	0xbe41b046	-0.18914899
28	0xbe120a3e	-0.1426172
29	0x3dca9cb2	0.098931685
30	0x3d16c352	0.036807366
31	0xbd9813cc	-0.07425651
32	0x3d4f7f86	0.050658725
33	0xbeb88b9f	-0.36044022
34	0x3cb08d51	0.02155176
35	0xbdc73e7a	-0.09728713
36	0x3d6bea1f	0.057596322
37	0xbced67f7	-0.028980238
38	0x3d7ee7fd	0.06223296
39	0xbe2ddfff	-0.16979979
40	0x3cb35050	0.021888882
41	0xbc858ec8	-0.016303435
42	0xbdb249b7	-0.08705466
43	0xbd9100ea	-0.070802525
44	0xbcb42de9	-0.021994548
45	0x3c3ee74f	0.011651828
46	0x3d80316f	0.06259429
47	0xbd0147e4	-0.0315627
48	0xbddb3a9e	-0.1070454
49	0xbbc52180	-0.0060159564
50	0xbeb3e078	-0.35132194
51	0x3d69a1ea	0.05703918
52	0x3cdda92a	0.027058203
53	0xbebd6ca5	-0.36996952
54	0x3d331ccc	0.043728635
55	0xbdd2bd84	-0.102900535
56	0xbd9a8e68	-0.07546693
57	0xbd328724	-0.04358591
58	0x3c5367a5	0.012903129
59	0x3c7942b8	0.015213661
60	0x3d27c90d	0.04096322
61	0x3ccf25d9	0.025286602
62	0xbd6a0fc4	-0.05714394
63	0xbd175db3	-0.036954593
64	0x3d5efd94	0.05444105
65	0xbdad1a67	-0.084523015
66	0xbd5a3d53	-0.05328114
67	0x3cee6efd	0.029105658
68	0x3ddcc681	0.10780049
69	0x39ce6400	0.00039365888
70	0x3d075f7a	0.033050038
71	0x3dace2c3	0.08441689
72	0x3dc8671d	0.09785292
73	0x3d0cd883	0.03438617
74	0xbd135587	-0.035970237
75	0xbcfa2c45	-0.030538687
76	0x3da554c6	0.0807281
77	0xbdb6c106	-0.08923535
78	0x3d44781d	0.04796611
79	0xbdb1f6fa	-0.08689685
80	0xbd00215d	-0.031281818
81	0xbb85dab3	-0.004084909
82	0xbe5a73a3	-0.21333174
83	0xbc52efb8	-0.012874536
84	0xbe00810c	-0.12549227
85	0xbe6fa672	-0.23403338
86	0x3d2f83be	0.04285025
87	0x3d614f48	0.05500725
88	0xbdba9e40	-0.09112215
89	0x3d4dc499	0.05023632
90	0x3d996a69	0.07490999
91	0xbe546d21	-0.20744754
92	0xbc28b264	-0.010296438
93	0x3c061da0	0.008185774
94	0x3e15f9f3	0.1464613
95	0x3d2b5ff6	0.041839562
96	0x3d32a3b2	0.043613143
97	0xbdf97724	-0.121809274
98	0x3d113833	0.035453986
99	0x3de6783d	0.112534024
100	0x3e54884c	0.20755118
101	0x3d1903d6	0.037357174
102	0x3e75c21c	0.23999828
103	0xbcab9fe2	-0.020950262
104	0xbd654067	-0.055969622
105	0xbd90d998	-0.07072753
106	0x3e26115b	0.16217558
107	0xbcc584c9	-0.024111168
108	0xbde7b0c8	-0.11313015
109	0x3edb17c1	0.4279156
110	0x3e2ea60a	0.17055526
111	0x3d9c87da	0.07643099
112	0xbd936147	-0.071962886
113	0xbd7c3bba	-0.061580397
114	0x3e22b1c7	0.15888129
115	0xbd38819e	-0.045045488
116	0xbc75bd16	-0.014998695
117	0xbe94842e	-0.29007095
118	0x3c1020cb	0.008796881
119	0x3be63ccc	0.0070262905
120	0xbe1d2569	-0.15346302
121	0xbe6fa7b4	-0.23403817
122	0xbd51d3ea	-0.051227488
123	0xbe316ecf	-0.17327426
124	0xbdd01f3b	-0.10162207
125	0xbdab728a	-0.08371456
126	0x3d546792	0.051856585
127	0x3e09cc23	0.13456778
128	0x3eccbab0	0.3998618
129	0x3f0d15d6	0.55111444
130	0xbf43ae7f	-0.76438135
131	0x3e185d08	0.14879239
132	0x3e431b9a	0.19053498
133	0xbdf379c0	-0.11888456
134	0x3e4a8cdd	0.19780298
135	0xbb61885f	-0.003441356
136	0x3ec472ce	0.3836884
137	0xbde22b26	-0.11043386
138	0x3d9ec76f	0.07752883
139	0xbd5b1353	-0.053485226
140	0x3e76d09c	0.24103016
141	0xbde5d6c0	-0.11222601
142	0xbd26aa92	-0.040690012
143	0xbed65644	-0.4186269
144	0x3cefa234	0.02925215
145	0x3d6c7360	0.057727218
146	0xbe0e5c28	-0.13902342
147	0xbede6b11	-0.4344106
148	0x3e888002	0.26660162
149	0x3efdcb65	0.4956924
150	0x3d7a84ed	0.061161924
151	0x3e8cf328	0.27529263
152	0x3e38b347	0.18037139
153	0x3e23589b	0.15951769
154	0xbe58bedd	-0.21166559
155	0x3d32312d	0.04350393
156	0xbedb7c75	-0.4286839
157	0x3d222161	0.039582614
158	0x3d7339a6	0.05938115
159	0x3ebab1c0	0.36463737
160	0xbd25071c	-0.040289983
161	0x3f31ba95	0.69425327
162	0x3f08d49d	0.5344942
163	0xbe86e20e	-0.2634434
164	0xbe076c41	-0.1322489
165	0xbcd337be	-0.025783416
166	0x3e885b10	0.26631975
167	0x3e717b1e	0.23582122
168	0xbd4e79f8	-0.050409287
169	0xbd0217b9	-0.031760905
170	0xbd8f63cf	-0.07001459
171	0xbcef8c90	-0.02924183
172	0xbd15e54a	-0.03659562
173	0x3b768f71	0.0037622119
174	0xbd899dd9	-0.0671956
175	0x3d9624b1	0.07331217
176	0xbf35d041	-0.71020895
177	0xbc6644f8	-0.014054529
178	0x3bc43ca9	0.0059886766
179	0x3d1a2c0b	0.03763966
180	0xbe8c4511	-0.27396443
181	0x3f457dd4	0.77145123
182	0x3e649656	0.22322974
183	0xbc01b6ef	-0.00791715
184	0xbdd7a400	-0.105293274
185	0x3e50d008	0.20391858
186	0x3dc15b74	0.094412714
187	0x3bbb48e0	0.0057154745
188	0xbe1378c9	-0.14401545
189	0xbd8b7f80	-0.06811428
190	0xbc09c8a8	-0.008409657
191	0xbea06422	-0.31326395
192	0x3e89734d	0.2684578
193	0xbd4fdd9e	-0.05074846
194	0xbed67fac	-0.4189428
195	0xbd26c298	-0.040712923
196	0x3e65d53f	0.22444628
197	0xbdb14b96	-0.08656995
198	0xbd4bf80e	-0.04979711
199	0x3d4cf3cb	0.050037187
200	0xbbc4f977	-0.006011184
201	0xbe906848	-0.2820456
202	0x3d874ce5	0.06606463
203	0x3e7ebb55	0.24876149
204	0x3e6efa07	0.23337565
205	0xbe703654	-0.23458225
206	0x3e3301b0	0.17481112
207	0x3d7e1fa2	0.062041886
208	0xbe6ba5ae	-0.2301242
209	0x3e38a046	0.1802989
210	0xbdf77bf8	-0.12084192
211	0x3b93af20	0.0045069605
212	0xbd8e863c	-0.06959197
213	0x3f09ea51	0.53873163
214	0x3d7e2ca2	0.062054284
215	0x3dca8574	0.098887354
216	0xbdc5a3e8	-0.09650403
217	0x3c4fcf82	0.012683751
218	0x3ae7cee6	0.0017685562
219	0x3e61665c	0.22011703
220	0xbe143bd3	-0.14475946
221	0xbda349a6	-0.07973032
222	0x3d6c4c1e	0.05768978
223	0xbd6d0738	-0.057868212
224	0xbcd9272d	-0.026507938
225	0x3f039e67	0.5141358
226	0x3f2ff012	0.68725693
227	0x3e800901	0.2500687
228	0x3e205801	0.15658571
229	0x3b9cabf7	0.004781242
230	0xbe0817bb	-0.13290302
231	0xbc83e94e	-0.01610246
232	0x3c163616	0.0091681685
233	0xbe2e214f	-0.17004894
234	0x3bf54059	0.0074844775
235	0xbde17c91	-0.11010087
236	0x3f107a20	0.5643635
237	0xbe28df32	-0.16491392
238	0x3e69b8bd	0.22824378
239	0x3e0eb642	0.13936713
240	0xbf00f351	-0.5037127
241	0xbd856090	-0.065125585
242	0x3d9f19e3	0.077686094
243	0xbea00d3e	-0.31260103
244	0x3f4003e3	0.7500593
245	0x3ea68d72	0.3252979
246	0xbe540ba3	-0.20707564
247	0x3e60c931	0.21951748
248	0xbe1ee68e	-0.15517637
249	0xbca042d8	-0.019563124
250	0xbdb0574c	-0.086104006
251	0xbecd3fed	-0.40087834
252	0xbdb2f1d6	-0.08737533
253	0xbebf80fe	-0.374031
254	0xbd5dd2e2	-0.05415619
255	0xbda1a231	-0.07892264

fc2.bias f4 [64]
0	0xbcff7313	-0.031182801
1	0x3dd54ba9	0.10414822
2	0xbb4383f4	-0.002983329
3	0x3ec3fcde	0.3827886
4	0x3e9776d1	0.29582837
5	0xbde43c9d	-0.111443736
6	0x3eab7948	0.33490968
7	0x3e44417e	0.19165608
8	0xbd9fab02	-0.07796289
9	0xbe29b052	-0.16571167
10	0xbdef1781	-0.11674405
11	0x3eb21c3b	0.34787163
12	0x3ea748f9	0.3267286
13	0x3e7d9cf3	0.24766903
14	0x3e9d869c	0.3076676
15	0x3e666fb0	0.22503543
16	0x3e836089	0.25659588
17	0x3e8acef6	0.27111024
18	0x3d933e9c	0.07189676
19	0xbad0087c	-0.0015871669
20	0x3e29c946	0.16580686
21	0x3ee89631	0.45427087
22	0x3ddac88d	0.10682783
23	0xbd17a358	-0.03702101
24	0xbd9e8527	-0.077402405
25	0x3ed78a90	0.42097902
26	0xbda67370	-0.08127487
27	0x3dbdfe6b	0.09277042
28	0x3d6131ff	0.05497932
29	0x3e8188f7	0.25299808
30	0xbd69ab8b	-0.05704836
31	0x3e5d12d8	0.2158922
32	0x3e1945a1	0.14967968
33	0xbe50be1f	-0.20385025
34	0x3e538461	0.20655967
35	0x3e8f479b	0.27984318
36	0xbe0ef164	-0.1395927
37	0x3e45c1e0	0.19312239
38	0x3dfd7cf3	0.12377348
39	0x3e975a33	0.29561004
40	0x3de6e479	0.112740465
41	0x3e696860	0.22793722
42	0xbd18d9b4	-0.037316993
43	0x3ea4b107	0.3216631
44	0xbca5abb2	-0.020223472
45	0x3d42ba75	0.0475411
46	0x3db87ada	0.09007807
47	0x3f164704	0.5870211
48	0xbcdc37d7	-0.026882095
49	0x3e12f9d8	0.1435312
50	0x3da47ce3	0.08031633
51	0xbc03dcfa	-0.00804829
52	0xbdac4744	-0.0841203
53	0xbd6d3b00	-0.057917595
54	0xbdc2e7d5	-0.09516875
55	0x3d0e10ed	0.03468411
56	0x3e5f4fa5	0.21807726
57	0x3dc6ed0a	0.0971318
58	0x3e8eec49	0.27914646
59	0xbdea75f3	-0.11448278
60	0x3d983def	0.07433688
61	0x3d2fc689	0.042913947
62	0xbdfac458	-0.12244481
63	0x3d3c4a72	0.045969434

fc3.weight f4 [5, 64]
0	0x3c840d1a	0.016119529
1	0xbcdb0a03	-0.026738172
2	0xbd4add4e	-0.04952746
3	0xbd2a8a85	-0.04163601
4	0xbcde28c6	-0.027119052
5	0x3cdc5e7b	0.02690052
6	0xbd19353c	-0.037404284
7	0x3cf8aabc	0.03035485
8	0xbd059d7a	-0.032620884
9	0x3c7a7df4	0.015288819
10	0xbc065a55	-0.008200248
11	0x3ce94889	0.02847697
12	0xbf42b056	-0.7605032
13	0xbc8a25ce	-0.01686373
14	0xbc6da0c0	-0.014503658
15	0xbd86f899	-0.06590385
16	0x3b5717c9	0.0032820574
17	0xbf9493be	-1.1607587
18	0xbcf46d9f	-0.029837428
19	0xbd3244b0	-0.043522537
20	0x3db2f378	0.08737844
21	0x3cc0bc50	0.023527294
22	0xbe534d36	-0.20634922
23	0x3d60d93d	0.054894675
24	0xbdd8f646	-0.10593848
25	0xba6e828b	-0.0009098432
26	0x3dc2a5fe	0.09504317
27	0xbfabd48b	-1.3424238
28	0xbcf178ae	-0.02947649
29	0xbfabbbcb	-1.3416685
30	0xbceb62ba	-0.0287336
31	0x3b776347	0.0037748383
32	0xbb9e8d56	-0.004838626
33	0xbcaa3ac9	-0.020779984
34	0xbc201997	-0.009771726
35	0xbf366511	-0.71247965
36	0xbcd3d917	-0.025860352
37	0x3d9f76cb	0.0778633
38	0xbca8973e	-0.02057993
39	0x3d77ea0c	0.06052594
40	0xbc4ddef1	-0.01256536
41	0xbe5cb380	-0.21552849
42	0x3ed32142	0.4123631
43	0xbdae4c18	-0.085106075
44	0xbcb2af8a	-0.02181222
45	0x3d925f6c	0.071471065
46	0xbf6a27c1	-0.9146691
47	0x3d31bfbc	0.043395743
48	0xbdbaca22	-0.09120585
49	0xbcd6b0b7	-0.026207311
50	0xbd9b9da9	-0.07598431
51	0x3cb2eb02	0.021840576
52	0x3c8aba4b	0.016934535
53	0xbd1f97e4	-0.038963214
54	0xbd8ab7f2	-0.06773366
55	0x3d92732a	0.07150872
56	0xbf9a89b3	-1.2073272
57	0xbcfdef0e	-0.03099778
58	0x3cf27a1f	0.029599248
59	0xbdaade87	-0.08343225
60	0xbf5ef4c1	-0.87092215
61	0xbf621304	-0.88310266
62	0xbd3d1126	-0.046158932
63	0xbde57ae4	-0.1120508
64	0x3c4de94a	0.0125678275
65	0xbca7620c	-0.020432495
66	0xbc556c79	-0.01302635
67	0xb82b6eec	-4.087288e-05
68	0xbd854878	-0.06507963
69	0x3d705589	0.058675323
70	0x3cbec67b	0.023288002
71	0xbeae25bd	-0.34013167
72	0xbe3a96c6	-0.18221578
73	0x3d29a2aa	0.041414894
74	0xbd109332	-0.035296626
75	0xc047d260	-3.1222153
76	0x3d9a7b88	0.07543093
77	0x3abf787a	0.0014608048
78	0xc0084561	-2.1292346
79	0x3b795fa1	0.0038051384
80	0x3d1c85f9	0.038213704
81	0xbde90c78	-0.11379331
82	0x3c318b0f	0.010836377
83	0xbfa0e6ec	-1.2570472
84	0x3b4549c5	0.0030103785
85	0x3cee9c73	0.029127335
86	0x3a0a8cf2	0.0005285285
87	0xbf829ac7	-1.0203484
88	0x3d2e6003	0.042572033
89	0xbfffc049	-1.9980556
90	0x3d96ba6d	0.07359777
91	0xbd6f9a8b	-0.058496993
92	0xbec35648	-0.38151765
93	0xbcf277f7	-0.02959822
94	0x3caf05d4	0.021365084
95	0xbf272326	-0.6528801
96	0xbe91e289	-0.28493145
97	0xbfa72e90	-1.3061085
98	0x3d7b753e	0.061391108
99	0x3e3f0c78	0.186571
100	0xbf83fadf	-1.0310935
101	0x3d5d382c	0.054008648
102	0xbf1f3e64	-0.62204576
103	0xbf208014	-0.6269543
104	0xbeaeedb6	-0.34165734
105	0xbce97b11	-0.028501065
106	0x3b4ddc59	0.0031411855
107	0x3c7f2ad9	0.0155741805
108	0xbc8af9a3	-0.01696474
109	0x3d8b62a8	0.068059266
110	0xbb1e0f0b	-0.0024117853
111	0xbfcf3e06	-1.6190803
112	0xbcaf51a6	-0.021401238
113	0xbd2fd8df	-0.042931434
114	0x3c9d5230	0.01920423
115	0x3ba07148	0.0048963167
116	0xbddb9407	-0.10721593
117	0xbdbb3201	-0.09140397
118	0x3d091df8	0.033475846
119	0xbf258faf	-0.6467237
120	0xbd69a688	-0.057043582
121	0xbee17e36	-0.44041604
122	0xbf53d967	-0.82753605
123	0xbdb32c3b	-0.08748671
124	0xbdd2241f	-0.10260796
125	0x3dbc29ff	0.091876976
126	0xbd9872cf	-0.07443773
127	0xbd2d001d	-0.042236436
128	0xbd3cc7ee	-0.046089105
129	0xbd704088	-0.05865529
130	0x3cb45257	0.022011919
131	0xc0294a2b	-2.6451519
132	0xbfa480ff	-1.2851866
133	0xbd34b460	-0.04411733
134	0xbdd82d7b	-0.1055555
135	0x3d3bc754	0.04584439
136	0xbd191982	-0.03737784
137	0xbd41369e	-0.047171228
138	0x3cc4af6d	0.02400943
139	0x3c31f539	0.010861688
140	0xbf27a8d0	-0.6549196
141	0xbd9cef70	-0.076628566
142	0xbdcb95d6	-0.09940688
143	0xbc985b13	-0.018598115
144	0x3d956bfb	0.07295986
145	0xbd8ed71b	-0.06974622
146	0xbf0777e8	-0.5291734
147	0x3be60ffe	0.0070209494
148	0xbc379731	-0.01120548
149	0xbdb28cb5	-0.08718244
150	0x3dd05d6f	0.10174071
151	0xbfa3f409	-1.2808849
152	0x3d857cbf	0.06517934
153	0x3c233e5d	0.009963599
154	0x3d0c8028	0.034301907
155	0xbe4b3dbb	-0.19847767
156	0xbcf21abd	-0.029553765
157	0xbda53752	-0.08067192
158	0xbccb6f08	-0.024833217
159	0xbd86224c	-0.0654951
160	0x3c0c7276	0.0085722115
161	0x3c1996a7	0.009374297
162	0xbd5146a3	-0.051092755
163	0x3e473b0e	0.19456121
164	0x3cf23205	0.029564867
165	0xbea8efbf	-0.32995412
166	0x3b6ad317	0.0035831386
167	0x3d0331fb	0.032030087
168	0x3dd90064	0.10595778
169	0xbf19b617	-0.6004347
170	0xbeff764c	-0.4989494
171	0xbf73f9b3	-0.95302886
172	0x3d879c9d	0.066216685
173	0xbd5368c8	-0.0516136
174	0x3d33a156	0.043855034
175	0x3bfb8f98	0.00767703
176	0xbf064a81	-0.52457434
177	0x3df35370	0.11881149
178	0xbd7a5dd3	-0.061124634
179	0xbd1b9dfd	-0.037992466
180	0xbddfbd4c	-0.109247774
181	0xbb37f271	-0.002806809
182	0x3da75537	0.0817055
183	0x3d239fe4	0.039947405
184	0x3d5d6c4d	0.05405836
185	0xbb7ed410	-0.0038883723
186	0x3dce4528	0.10071784
187	0xbbd269a5	-0.006421285
188	0xbbf2172b	-0.0073880157
189	0x3ce6341c	0.02810102
190	0x3bd7827c	0.0065768342
191	0x3e3e2991	0.18570544
192	0xbc897f2c	-0.016784273
193	0x3d757fbb	0.059936266
194	0xbde9bca3	-0.11412933
195	0xbd3d74e2	-0.046254046
196	0xbf9aa54b	-1.2081693
197	0x3d99c608	0.075084746
198	0xbf4f0b1f	-0.80876344
199	0xbf17f3b6	-0.5935625
200	0xbd1b9513	-0.037983965
201	0x3c7e5558	0.015523277
202	0x3d8aa05e	0.06768869
203	0xbc9547fc	-0.018222801
204	0xbf6bb8e9	-0.92079026
205	0xbf5747a5	-0.84093696
206	0xbc2569e2	-0.010096045
207	0xbd9ec47e	-0.07752322
208	0x3d2fa49b	0.04288159
209	0x3d116688	0.035498172
210	0xbf3256df	-0.69663805
211	0x3d4b98ad	0.04970615
212	0xbde9fb58	-0.11424893
213	0xbf3bad84	-0.7331164
214	0xbdab7110	-0.08371174
215	0xbc12a5c6	-0.008950656
216	0xbe0f2459	-0.1397871
217	0xbcae4a87	-0.021275772
218	0xbcb5a728	-0.022174433
219	0x3d37af72	0.044845052
220	0x3e1aef4b	0.15130346
221	0x3d41b6f5	0.047293622
222	0xbdbb0efe	-0.09133719
223	0xbf174296	-0.5908598
224	0xbf23df6a	-0.6401278
225	0xbed40ed9	-0.41417578
226	0xbf4f197a	-0.8089825
227	0x3c4887bd	0.012239394
228	0xbf0de7e4	-0.5543196
229	0xbd1564c7	-0.036473062
230	0x3dddb46b	0.108254276
231	0xbcdba6a8	-0.026812866
232	0xbd4079ab	-0.04699103
233	0xbf52af18	-0.8229842
234	0x3ce50501	0.027956488
235	0xbf7a258d	-0.9771355
236	0xbe1cdff3	-0.15319805
237	0xbcb69270	-0.022286624
238	0xbf43cd47	-0.76485103
239	0x3d8b60c6	0.068055674
240	0x3dc67d4c	0.09691867
241	0xbf5b2aaf	-0.85612005
242	0xbe3fb7c6	-0.18722448
243	0xbeb0127c	-0.34389102
244	0x3d3222da	0.04349027
245	0xbe00bc2c	-0.12571782
246	0xbeb22abf	-0.34798238
247	0xbeb037dd	-0.3441762
248	0xbd189ed7	-0.037260856
249	0x3df97b58	0.12181729
250	0xbf39e574	-0.7261574
251	0x3d90c2ac	0.07068381
252	0xbda28a88	-0.07936579
253	0xbdc53f66	-0.09631233
254	0x3d65020c	0.055910155
255	0x3cc3f9bd	0.023922795

fc3.bias f4 [5]
0	0xc078f6d2	-3.8900647
1	0xc0363962	-2.8472524
2	0xc085a495	-4.1763406
3	0xc08e54a2	-4.447831
4	0xbfe27106	-1.7690742
