src/handmodel.pth (torch, 69404 bytes, 6 tensors)

fc1.weight f4 [128, 63]
-0.03101815 0.108711295 0.2072856 0.1859085 -0.07182206 0.028421583 0.04461708 0.013180981
-0.081063114 0.10564711 -0.007633428 -0.18842146 -0.04099942 -0.3017507 -0.035321362 0.020967564
-0.04213766 0.08214512 0.015665337 0.061950892 -0.11487931 0.10663885 -0.21664304 -0.12818795
0.053023998 -0.09142729 -0.072849095 0.08796016 0.20580406 -0.14376394 -0.16679235 0.11145607
0.02636128 -0.13046473 -0.1490581 -0.052592352 -0.11259693 -0.041940432 -0.37239757 -0.0060180007
0.14315641 -0.019939769 -0.035794552 0.13562873 -0.120003976 -0.064656466 0.2706809 -0.2411385
-0.1357793 0.16585898 -0.2899977 -0.032453757 0.23390251 -0.08120217 -0.04960212 0.08636733
-0.39878792 0.047896657 0.06890946 -0.4048761 0.06571084 0.10079879 -0.49787363 -0.029002154
-0.07909063 -0.15069337 -0.02756725 0.12607342 0.15752545 0.13955171 0.31243747 0.16711444
0.16581157 0.25216928 0.029302217 0.02304284 0.28335127 0.097056136 -0.054606676 -0.10390861
-0.02086651 -0.06594237 -0.15550803 -0.014999177 0.042456627 -0.24150935 0.16435005 0.022800362
0.24547654 0.15651122 -0.14391986 -0.2264187 -0.06174622 -0.1500886 -0.31138635 -0.1631024
0.112825334 -0.10488457 -0.011505804 -0.1372172 0.5352192 0.068780825 0.11820033 -0.23021322
-0.171858 0.07733257 -0.09550481 -0.046347547 0.045545135 -0.21954167 0.15410559 -0.20474477
0.34455085 0.3056729 -0.050273743 -0.22025263 -0.18006133 0.007941941 -0.22602363 0.05981359
-0.12070918 -0.14690837 0.13781115 0.0153634595 -0.06767149 0.15096095 0.015160779 0.058077823
0.32258987 0.06907317 0.06712733 -0.05153502 0.041442074 0.19558102 -0.18769038 -0.080667906
0.21744512 -0.09549277 0.021584328 0.15949069 0.038842823 0.017592942 0.024655195 -0.09389722
-0.09379954 -0.08454615 -0.2375545 -0.12310206 0.5848555 -0.12513462 -0.059356533 0.47989917
0.09007993 -0.021782277 -0.1580294 -0.031514924 0.005895785 -0.19730055 -0.01479253 0.07757863
-0.011928759 0.036029927 0.0988055 -0.022874285 -0.021481683 0.05012948 -0.144225 -0.01605413
-0.10231517 -0.08679041 -0.14952268 -0.02111786 -0.014157333 -0.0644979 -0.12588958 -0.2281328
0.042935558 -0.16010468 -0.101411454 0.075339995 -0.0928524 0.11989373 -0.006630733 0.115885764
0.09231224 -0.10551208 0.04779249 0.21551226 -0.05352464 0.0713947 0.02976887 -0.06527004
-0.070204794 0.0036552846 -0.014296114 -0.11780332 -0.10689446 0.06309275 0.015458211 -0.08863251
-0.010734908 0.07148157 -0.08736561 0.051960632 -0.046896785 -0.06813188 0.03857833 -0.082442924
0.07966784 -0.11507173 -0.108771086 -0.0983647 -0.037705638 -0.10433271 -0.10239163 0.036240473
0.066287085 -0.012680218 -0.024109498 -0.102084614 -0.06416255 -0.012175478 -0.052692316 -0.029959008
-0.07834114 0.020672217 -0.07151777 0.105483264 -0.0058664232 0.004611194 -0.11785553 0.06511156
-0.062159926 -0.113729276 -0.03758855 -0.05275824 -0.10259006 -0.067922816 -0.056421496 -0.04934743
-0.12455419 0.084656775 -0.019901633 0.109388575 0.06733541 -0.07044193 0.12471107 -0.1119477
0.0053840578 0.07024144 0.02065131 0.05912216 -0.12792198 -0.1921399 -0.36950773 -0.03512311
00000000: c619 febc 07a4 de3d ad42 543e cc5e 3e3e
00000010: 7217 93bd 61d4 e83c 66c0 363d 0bf5 573c
00000020: 6b04 a6bd 835d d83d d621 fabb 8ef1 40be
00000030: 02ef 27bd 117f 9abe 22ad 10bd 2bc4 ab3c
00000040: 8a98 2cbd b33b a83d 9854 803c 38c0 7d3d
00000050: d845 ebbd 7865 da3d acd7 5dbe b443 03be
00000060: b12f 593d 3b3e bbbd e831 95bd 7524 b43d
00000070: 4dbe 523e db36 13be 9dcb 2abe 1443 e43d
00000080: 9cf3 d73c 8c98 05be b0a2 18be 146b 57bd
00000090: 3899 e6bd bbc9 2bbd e5aa bebe a632 c5bb
000000a0: 9897 123e ba58 a3bc 4f9d 12bd 42e2 0a3e
000000b0: a5c4 f5bd 9c6a 84bd b096 8a3e 03ed 76be
000000c0: bb09 0bbe f0d6 293e 947a 94be 3bee 04bd
000000d0: 2484 6f3e 534d a6bd 982b 4bbd 5be1 b03d
000000e0: ee2d ccbe 492f 443d 6720 8d3d ec4b cfbe
000000f0: 6893 863d 996f ce3d 4be9 febe ed95 edbc
00000100: 45fa a1bd 5d4f 1abe b7d4 e1bc 6419 013e
00000110: 5a4e 213e a5e6 0e3e cef7 9f3e 0c20 2b3e
00000120: 82ca 293e 551c 813e 340b f03c 57c4 bc3c
00000130: 6b13 913e 5ec5 c63d 40ab 5fbd 0ace d4bd
00000140: 3ef0 aabc cb0c 87bd 7f3d 1fbe 1cbf 75bc
00000150: 00e7 2d3d 3a4e 77be 614b 283e d3c7 ba3c
00000160: 345e 7b3e 7a44 203e ba5f 13be 4eda 67be
00000170: 9be9 7cbd d3b0 19be 086e 9fbe 5104 27be
00000180: f810 e73d b9cd d6bd d782 3cbc aa82 0cbe
00000190: 2004 093f f6dc 8c3d 0413 f23d 04bd 6bbe
000001a0: 8bfb 2fbe 8a60 9e3d 0798 c3bd edd6 3dbd
000001b0: 898d 3a3d 88cf 60be dbcd 1d3e 9da8 51be
000001c0: f868 b03e 2981 9c3e d7eb 4dbd e889 61be
000001d0: ff61 38be ea1e 023c bd72 67be 18ff 743d
000001e0: 6036 f7bd 266f 16be 5e1e 0d3e 05b7 7b3c
000001f0: 5a97 8abd 8295 1a3e ea64 783c 03e3 6d3d
00000200: 802a a53e 3c76 8d3d 0e7a 893d 6316 53bd
00000210: 2abf 293d 6446 483e e831 40be 3735 a5bd
00000220: efa9 5e3e b791 c3bd 9ed1 b03c 8751 233e
00000230: a719 1f3d 131f 903c b1f9 c93c 304d c0bd
00000240: f919 c0bd 8826 adbd 7d41 73be ef1c fcbd
00000250: 17b9 153f 4a23 00be d61f 73bd 58b5 f53e
00000260: d47b b83d bf70 b2bc 76d2 21be cb15 01bd
00000270: 6e31 c13b 2809 4abe 5e5c 72bc 8be1 9e3d
00000280: d770 43bc 1e94 133d 8a5a ca3d da62 bbbc
00000290: 5bfa afbc 9254 4d3d b8af 13be f383 83bc
000002a0: 9e8a d1bd 2cbf b1bd 791c 19be 5dff acbc
000002b0: 29f4 67bc 7a17 84bd 33e9 00be a59b 69be
000002c0: 32dd 2f3d 7bf2 23be cfb0 cfbd db4b 9a3d
000002d0: 6629 bebd d88a f53d 9f46 d9bb 8455 ed3d
000002e0: 330e bd3d b816 d8bd 0fc2 433d 3faf 5c3e
000002f0: a73c 5bbd 6237 923d d8dd f33c 4cac 85bd
00000300: 88c7 8fbd 808d 6f3b 403a 6abc de42 f1bd
00000310: 7ceb dabd c636 813d 7044 7d3c f684 b5bd
00000320: 78e1 2fbc ee64 923d beec b2bd acd4 543d
00000330: d816 40bd ba88 8bbd 5004 1e3d d6d7 a8bd
00000340: e428 a33d baaa ebbd 60c3 debd 6f73 c9bd
00000350: 3a71 1abd 63ac d5bd b4b2 d1bd e470 143d
00000360: 86c1 873d b0c0 4fbc 4881 c5bc bd11 d1bd
00000370: a867 83bd a87b 47bc e6d3 57bd 986c f5bc
00000380: 5271 a0bd c858 a93c e977 92bd 9c07 d83d
00000390: 203b c0bb 8019 973b 3d5e f1bd 3659 853d
000003a0: 689b 7ebd e5ea e8bd 74f6 19bd 0619 58bd
000003b0: bd1a d2bd 1e1b 8bbd 3a1a 67bd 8820 4abd
000003c0: 4416 ffbd 8860 ad3d c008 a3bc 1e07 e03d
000003d0: 26e7 893d dc43 90bd 8468 ff3d d644 e5bd
000003e0: c06c b03b beda 8f3d f02c a93c 142a 723d
000003f0: fbfd 02be 52c0 44be 1e30 bdbe 40dd 0fbd

fc1.bias f4 [128]
-0.020214181 0.015480378 0.044927318 -0.049068198 -0.08286579 0.13368349 -0.07320694 0.2100878
-0.10311924 0.05560416 -0.09021454 -0.0951199 0.09316864 0.23283702 0.063411355 0.15648374
0.12588228 -0.024489636 -0.06720545 -0.1002121 0.017670697 0.023558099 -0.056127477 -0.013219481
-0.029970497 0.22291242 -0.03242248 -0.12330401 -0.12979575 0.04300049 -0.14683515 0.05196472
0.06575507 -0.07194292 0.09129755 0.1108149 0.06173123 0.006228419 -0.08965664 0.07532576
0.007956024 0.11833267 0.2164674 -0.09902997 -0.1008478 -0.11234089 0.0034056057 -0.024474707
-0.014344983 0.13281876 -0.0733522 -0.04101415 0.019236678 -0.010911152 -0.091327645 -0.092127234
-0.09477906 0.090172604 -0.091673076 0.05491846 -0.07820154 -0.039639838 0.15478796 0.07914846
0.09928562 0.023963766 0.054038048 0.013898805 -0.06587123 -0.17068622 -0.00044304176 0.105365515
-0.09885935 0.016475877 -0.08405414 0.05901913 -0.083030604 -0.12485153 0.034802 0.097105056
0.047927953 -0.031640694 0.13424915 -0.03659382 0.08005664 0.009851987 -0.18586576 0.11482489
0.017173328 -0.00010770559 0.030720321 0.011283776 -0.07046422 -0.071579516 0.11325953 0.11061267
0.08179609 0.1030354 0.10861844 -0.039145574 0.044045016 0.12250922 0.08704506 0.06088443
0.1968588 -0.101547144 0.09589901 0.098117106 -0.035838313 0.08553961 0.05552404 -0.04887256
0.15853283 -0.03249535 0.042992637 0.1652674 -0.1239005 0.03265375 0.025699995 0.00025359515
-0.019231452 0.18115711 0.22452067 0.08774257 0.0118673025 0.21419077 0.01887028 -0.121747985
00000000: 3698 a5bc 69a1 7d3c b505 383d bcfb 48bd
00000010: 8ab5 a9bd 53e4 083e 85ed 95bd 4221 573e
00000020: 2e30 d3bd 30c1 633d 67c2 b8bd 39ce c2bd
00000030: 33cf be3d d46c 6e3e d0dd 813d 463d 203e
00000040: 49e7 003e 7d9e c8bc 03a3 89bd 003c cdbd
00000050: 23c2 903c eafc c03c ede5 65bd 8696 58bc
00000060: b084 f5bc 2743 643e 6fcd 04bd d086 fcbd
00000070: 2de9 04be 4821 303d f45b 16be f5d8 543d
00000080: 98aa 863d cf56 93bd 36fa ba3d ecf2 e23d
00000090: e3d9 7c3d c417 cc3b e79d b7bd 6444 9a3d
000000a0: fc59 023c 6658 f23d a1a9 5d3e 3ad0 cabd
000000b0: 4b89 cebd fb12 e6bd 9530 5f3b 2e7f c8bc
000000c0: 3807 6bbc a401 083e ae39 96bd 74fe 27bd
000000d0: 3d96 9d3c b0c4 32bc fd09 bbbd 34ad bcbd
000000e0: 861b c2bd 6aac b83d 18bf bbbd 2ef2 603d
000000f0: 2128 a0bd 625d 22bd bc80 1e3e 9618 a23d
00000100: 4256 cb3d a94f c43c 0057 5d3d d0b7 633c
00000110: 7fe7 86bd 5ec8 2ebe 0f48 e8b9 e0c9 d73d
00000120: c576 cabd 6bf8 863c 9424 acbd 0bbe 713d
00000130: f30b aabd 29b2 ffbd 8b8c 0e3d 04df c63d
00000140: 1a50 443d ac99 01bd 9c78 093e 67e3 15bd
00000150: bcf4 a33d 3a6a 213c 9853 3ebe 5029 eb3d
00000160: 14af 8c3c 00e0 e1b8 2fa9 fb3c 96df 383c
00000170: 8c4f 90bd 4898 92bd 9df4 e73d e588 e23d
00000180: b584 a73d 3904 d33d 5873 de3d 1c57 20bd
00000190: 8c68 343d 1de6 fa3d ae44 b23d f461 793d
000001a0: 5a95 493e f3f7 cfbd b366 c43d 9ff1 c83d
000001b0: 32cb 12bd 642f af3d 2d6d 633d 982e 48bd
000001c0: 6e56 223e d819 05bd 0c19 303d db3b 293e
000001d0: 8cbf fdbd f0bf 053d cc88 d23c f7f4 8439
000001e0: 478b 9dbc 4081 393e bfe8 653e 60b2 b33d
000001f0: 136f 423c d354 5b3e d895 9a3c 0257 f9bd

fc2.weight f4 [64, 128]
0.0053369864 0.500145 -0.0833628 -0.04245 0.14912137 0.16441827 -0.019038267 -0.100230835
0.03595315 0.078959085 0.17086406 -0.034455247 -0.00028496317 0.031022249 -0.14520563 -0.17838496
0.40630597 -0.16189824 0.4876208 0.06808702 -0.026542375 0.3714789 0.276654 -0.09865159
0.17348622 -0.24161099 -0.25169578 0.08096843 0.06938319 0.22214267 0.17216611 -0.35957462
0.007695162 0.07559333 0.2089866 -0.2569742 0.15550634 -0.025836974 0.23132245 0.08005165
-0.07859727 0.081644274 -0.11093793 -0.020738496 -0.0412103 0.02803878 0.29449734 -0.008218588
0.07474635 0.3172416 0.0811163 0.011513278 -0.18959019 -0.010294549 -0.069505796 -0.039662354
-0.06506273 -0.2130074 0.061304748 0.058559086 -0.06261222 0.044657387 -0.037353646 0.038191177
-0.07866302 -0.03421458 0.023617 -0.08596745 -0.010900227 -0.16381559 0.0015584389 -0.08809981
0.20625287 -0.22528757 0.0092050955 -0.2598804 -0.09389232 -0.30053055 0.29506952 0.24328378
0.368884 0.041856535 0.037660602 0.44711614 0.1494046 0.16283596 0.079848416 -0.20738131
0.07490357 0.06596128 -0.29177678 -0.014291214 0.033791184 0.07866401 -0.056462377 -0.22334377
0.06659115 -0.15660754 0.0630795 0.21377087 -0.017089084 -0.113433175 0.008068614 0.12271502
-0.19272625 0.08730132 -0.054430902 0.06032958 -0.06557317 0.058892928 -0.1213425 0.11639016
-0.13189551 -0.0681849 -0.17553054 0.15329836 -0.05017776 -0.3648131 0.041064333 -0.3544298
0.13542256 -0.45139924 -0.23542637 -0.06848757 0.12114016 -0.34154388 0.08168874 0.11535903
0.09871512 -0.031145943 -0.020770641 0.030508503 -0.06488133 0.1243645 0.050562955 0.09784314
-0.056102682 0.039136894 -0.054165777 0.027839676 -0.06257434 0.040119912 -0.2852623 0.12697175
0.015462072 -0.050268535 0.06605832 -0.071282975 0.2264514 -0.5245009 -0.017311988 0.14761284
0.06605699 -0.024775451 0.15368702 0.05153867 -0.017993154 0.09807507 -0.09170766 0.096439615
0.11629156 0.069931485 -0.12961599 0.107997976 -0.66223764 0.14375947 0.013591732 0.06542765
0.0033703384 -0.13629113 -0.058023244 -0.005680551 -0.08763868 -0.04767896 -0.217001 0.14069295
-0.032469396 -0.31098568 0.07125693 -0.06865748 0.12966503 0.03817842 0.056195296 -0.041460674
0.018381312 0.020710345 0.1873401 0.017634066 -0.045670748 -0.020233557 0.039478417 -0.034738086
0.07137401 0.062039908 0.030335166 -0.027787521 -0.0036215787 -0.0014706971 -0.010267332 -0.04844721
-0.09765777 0.1251512 -0.05434409 0.21790661 0.09416128 0.170154 0.09009622 -0.44048375
-0.6851813 -0.05538428 -0.07372665 -0.09783453 -0.105996385 0.076824866 -0.2758343 0.12352095
-0.13360551 -0.020748556 -0.06889795 0.052286036 0.022467546 -0.009019196 -0.044717927 0.17414685
-0.029881297 0.15834576 -0.04450188 0.044065244 -0.062154822 0.020270707 0.08722646 0.073694155
0.20013061 -0.019022167 0.020028217 0.028139373 -0.07197218 -0.13695294 0.032911323 -0.1611697
0.0142652495 -0.05665694 0.116623506 0.060814407 -0.06964069 0.08683187 0.018061386 0.05689639
-0.027552309 0.05120451 0.16623351 -0.07648367 0.11112458 -0.04584718 -0.05057725 0.041740842
00000000: e3e1 ae3b 8109 003f 1eba aabd 0de0 2dbd
00000010: 46b3 183e 435d 283e 24f6 9bbc d345 cdbd
00000020: 9c43 133d 4db5 a13d fdf6 2e3e f220 0dbd
00000030: 1c67 95b9 5f22 fe3c c9b0 14be 8caa 36be
00000040: 5607 d03e a7c8 25be 6fa9 f93e 3571 8b3d
00000050: 656f d9bc 7b32 be3e 98a5 8d3e d809 cabd
00000060: 5fa6 313e df68 77be 45de 80be c7d2 a53d
00000070: c618 8e3d 5e79 633e 504c 303e 2a1a b8be
00000080: b327 fc3b add0 9a3d 9500 563e 1f92 83be
00000090: 0e3d 1f3e 10a8 d3bc cbdf 6c3e 1ff2 a33d
000000a0: 9bf7 a0bd 1d35 a73d 6d33 e3bd c7e3 a9bc
000000b0: 22cc 28bd 95b1 e53c 5bc8 963e 42a7 06bc
000000c0: 9d14 993d 7e6d a23e 4d20 a63d 30a2 3c3c
000000d0: ee23 42be 78aa 28bc 0e59 8ebd fe74 22bd
000000e0: 9c3f 85bd 9d1e 5abe b01a 7b3d a7db 6f3d
000000f0: d63a 80bd aaea 363d 2300 19bd 5a6e 1c3d
00000100: 141a a1bd 9624 0cbd 7078 c13c b40f b0bd
00000110: de96 32bc 46bf 27be 8844 cc3a ac6d b4bd
00000120: f433 533e c9b1 66be f8d0 163c 0b0f 85be
00000130: 9e4a c0bd 24df 99be 5a13 973e 621f 793e
00000140: 5dde bc3e c271 2b3d 0142 1a3d 68ec e43e
00000150: 85fd 183e 78be 263e 9187 a33d c45b 54be
00000160: 0b67 993d b516 873d c463 95be b225 6abc
00000170: a068 0a3d 991a a13d 1845 67bd 3bb4 64be
00000180: f160 883d ba5d 20be d32f 813d c0e6 5a3e
00000190: 68fe 8bbc a74f e8bd 3832 043c 0352 fb3d
000001a0: 085a 45be 09cb b23d f0f2 5ebd 261c 773d
000001b0: 3a4b 86bd b639 713d 6b82 f8bd f75d ee3d
000001c0: 9e0f 07be 86a4 8bbd 47be 33be 3ffa 1c3e
000001d0: 3287 4dbd c8c8 babe 1333 283d d377 b5be
000001e0: 36ac 0a3e cd1d e7be 9c13 71be 3643 8cbd
000001f0: 5518 f83d d7de aebe 6d4c a73d 5b41 ec3d
00000200: 272b ca3d c725 ffbc 3127 aabc f8ec f93c
00000210: 81e0 84bd d1b2 fe3d 1a1b 4f3d fc61 c83d
00000220: edcb 65bd 024e 203d efdc 5dbd 0810 e43c
00000230: fa26 80bd c754 243d e60d 92be e204 023e
00000240: a154 7d3c 61e6 4dbd 9649 873d cffc 91bd
00000250: e0e2 673e b145 06bf dfd1 8dbc d227 173e
00000260: e348 873d e3f5 cabc 2160 1d3e 361a 533d
00000270: 6166 93bc 95db c83d 3ad1 bbbd 2282 c53d
00000280: 452a ee3d 3d38 8f3d 0eba 04be 0b2e dd3d
00000290: 6888 29bf af35 133e dbaf 5e3c effe 853d
000002a0: e5e0 5c3b e78f 0bbe c8a9 6dbd ea23 babb
000002b0: e97b b3bd 034b 43bd 8335 5ebe d011 103e
000002c0: a1fe 04bd 8439 9fbe 27ef 913d 4b9c 8cbd
000002d0: e9c6 043e fa60 1c3d 0a2d 663d abd2 29bd
000002e0: 6894 963c bea8 a93c 15d6 3f3e 5175 903c
000002f0: 4011 3bbd d8c0 a5bc 1fb4 213d 8649 0ebd
00000300: 892c 923d 8f1d 7e3d 7481 f83c a8a2 e3bc
00000310: 0258 6dbb 68c4 c0ba 5038 28bc 9570 46bd
00000320: cc00 c8bd a327 003e e997 5ebd e922 5f3e
00000330: a1d7 c03d da3c 2e3e 5e84 b83d 1687 e1be
00000340: 0b68 2fbf a0da 62bd fffd 96bd 785d c8bd
00000350: a214 d9bd 5b56 9d3d 273a 8dbe 8df8 fc3d
00000360: e2cf 08be e0f8 a9bc 5e1a 8dbd e229 563d
00000370: dc0d b83c 40c5 13bc 252a 37bd 8d53 323e
00000380: 9fc9 f4bc 6425 223e 9a47 36bd c27d 343d
00000390: 0e96 7ebd c10e a63c c9a3 b23d f6ec 963d
000003a0: 0aef 4c3e 60d4 9bbc 3712 a43c 8b84 e63c
000003b0: 2666 93bd 643d 0cbe 06ce 063d ab09 25be
000003c0: cbb8 693c 1c11 68bd 4ed8 ee3d 8718 793d
000003d0: c79f 8ebd e8d4 b13d 79f5 933c 300c 693d
000003e0: 61b5 e1bc d2bb 513d 1e39 2a3e 78a3 9cbd
000003f0: 4995 e33d 41ca 3bbd 172a 4fbd 72f8 2a3d

fc2.bias f4 [64]
0.05126196 0.20213556 0.08674993 0.19514272 -0.03364939 0.20711909 -0.06714233 0.14751029
0.29238054 0.27803984 0.08107623 0.13360898 0.25700763 0.36314678 0.023434192 0.07706241
-0.049740136 0.099851884 -0.077849366 0.323382 0.34169254 0.6059091 0.34825262 -0.050309572
0.19636573 0.49352664 -0.084803596 -0.032650728 -0.008035504 -0.099767655 0.05790811 -0.013395624
-0.049501035 0.076367535 0.100751266 0.061076265 -0.09632701 -0.05783145 -0.19893137 0.092552975
0.2717418 0.42148194 0.5529656 0.1398365 0.041057773 0.15647769 0.08684081 0.5245712
0.13539658 -0.07331015 0.29603153 -0.06369458 0.004328377 0.053826205 0.15604645 0.22768721
0.20827754 -0.03012735 0.016443184 0.19922711 0.04966229 0.33214638 -0.07294296 0.02648179
00000000: 10f8 513d a0fc 4e3e f3a9 b13d 7ed3 473e
00000010: f1d3 09bd 0717 543e eb81 89bd f00c 173e
00000020: e7b2 953e 3d5b 8e3e 4b0b a63d cbd0 083e
00000030: 8196 833e 60ee b93e 10f9 bf3c e6d2 9d3d
00000040: 50bc 4bbd 257f cc3d 7d6f 9fbd 5392 a53e
00000050: 53f2 ae3e dc1c 1b3f 2b4e b23e 6911 4ebd
00000060: 1914 493e 86af fc3e 82ad adbd c5bc 05bd
00000070: 59a7 03bc fc52 ccbd 0e31 6d3d 5279 5bbc
00000080: 99c1 4abd 9566 9c3d ae56 ce3d 1b2b 7a3d
00000090: 1847 c5bd ace0 6cbd aab4 4bbe 6a8c bd3d
000000a0: be21 8b3e 7bcc d73e 278f 0d3f 4d31 0f3e
000000b0: 322c 283d b03b 203e 98d9 b13d 4c4a 063f
000000c0: 67a5 0a3e a223 96bd 7291 973e 4e72 82bd
000000d0: 0fd5 8d3b de78 5c3d a4ca 1f3e d626 693e
000000e0: b546 553e a2cd f6bc dbb3 863c 3102 4c3e
000000f0: af6a 4b3d 170f aa3e 1e63 95bd 57f0 d83c

fc3.weight f4 [4, 64]
-0.2285436 0.04638116 0.048845265 -0.00045362284 -0.09792789 0.08484688 0.09659643 -0.1332238
-0.15380353 -0.0065835845 0.028851205 -0.024156108 -0.40433672 -0.18409766 -0.022753136 -0.17906399
0.07781718 -0.0042783087 -0.010788206 -0.22309002 -0.28283402 -0.2078106 0.010197131 -0.12570328
0.09322209 -1.2819427 0.09286694 -0.11493017 0.047080733 0.07732088 -0.09010268 -0.39264855
0.10607384 -0.024377514 -0.27928993 -0.14859407 -0.061237816 -0.07079031 -0.014594833 0.009835618
0.089577794 -0.0796152 -0.16142896 0.010460348 -0.036851056 0.07099438 -0.0024183474 -0.083917424
0.062030178 -0.044027343 -0.011236557 0.118413374 -0.0210217 -0.06858368 -0.25224978 -0.038669035
-0.29565123 0.03132923 -0.017493965 -0.0066686855 -0.24249695 0.090536684 0.1207151 -0.2327781
-1.0686742 -0.057104435 -0.037216816 0.01774495 0.047417294 0.074426204 0.02028135 -0.058880605
0.02372151 -0.08918592 0.23861791 -0.22916737 0.07474285 -0.14599201 0.023619462 -0.758236
-0.082668245 0.12182157 -0.16444436 0.074506074 -0.02529008 -0.19350432 -0.04230378 -0.8940849
0.041527994 0.087204605 0.020156162 -0.0922824 -0.053233635 -0.009120299 0.05652774 0.2128563
0.083761804 -0.096052535 -1.2719452 -0.028136384 -0.091091864 -0.040706567 0.1061422 -1.1435499
-0.1566416 -0.11081976 -0.01140285 0.029339511 -0.030488668 -0.0111589255 -0.014161845 -0.16664785
-0.11680164 0.023865148 -0.17609802 -0.07667081 0.11428274 -0.018856375 0.11405024 -1.7827854
-0.021654436 -0.010228177 -0.85392994 0.08906845 0.062855594 -0.21474366 -0.09414862 -1.021367
-0.11264053 0.044783488 0.002596879 -0.10519069 0.015498573 -0.4441187 0.113954306 0.0256054
-0.051296834 0.034745775 -0.007795169 -1.0723095 0.05079045 0.11454162 -0.022710323 0.056199398
0.094320565 -0.027176438 -0.010028096 -0.12818365 -0.17290996 -0.03676601 -1.1358566 0.0057018036
-0.7194027 0.0889215 -0.054389577 0.08851421 0.04626675 0.11068657 -0.043569386 -2.8030765
0.03439265 -0.42648754 0.03272275 -0.78293407 0.002366947 -0.013766202 0.23296492 -0.1576596
-1.1143286 0.0326641 -0.1215514 -1.0295166 -0.036592364 -1.2699599 0.00016828116 0.0142559
-0.018159464 0.08034293 0.025768679 -0.031320184 -0.05631447 -1.0874667 -0.075316034 0.07458743
-0.76973665 -0.07845162 -0.06894221 -0.15828112 -0.03980611 -0.6512243 0.09399742 -0.055603728
0.0710115 -0.79845965 -1.0500276 0.15906076 -0.03345443 -0.7461455 0.07943463 -0.008830682
0.06084286 -1.0674111 -0.9838934 0.0024713778 -0.0032440354 -0.015655225 -0.017574951 0.033828378
0.10599327 0.007991518 -0.0680845 0.0523215 -0.026475921 0.060263835 -0.19757691 0.088266365
-0.052111115 -0.13068116 -0.05845494 -0.06109038 -0.02616651 0.061935026 0.01411331 -0.12660581
-0.079411194 -0.056715693 -0.24669252 0.022792201 0.04505714 -0.07807365 0.05323817 -0.9925669
0.026114881 0.022954222 0.040723518 0.1032908 0.1058334 0.029403215 -0.4517749 0.1281859
-0.4606243 0.008949682 -1.174555 0.013764534 -0.050600864 0.13108292 -2.4250135 -0.019431936
0.04087366 -0.08167198 0.13373028 -0.15587728 -0.051567726 -0.617389 -0.06379111 -0.03294931
00000000: 5507 6abe 2cfa 3d3d f911 483d 3ad4 edb9
00000010: 6b8e c8bd 33c4 ad3d 59d4 c53d d26b 08be
00000020: ac7e 1dbe 1cbb d7bb 5d59 ec3c 08e3 c5bc
00000030: 3905 cfbe 1984 3cbe c964 babc 8d5c 37be
00000040: 9d5e 9f3d 0e31 8cbb 04c1 30bc b671 64be
00000050: 9fcf 90be 4dcc 54be de11 273c 5cb8 00be
00000060: 39eb be3d b316 a4bf 0631 be3d 8260 ebbd
00000070: bad7 403d 695a 9e3d c187 b8bd 3b09 c9be
00000080: 3e3d d93d 5ab3 c7bc 17ff 8ebe 0b29 18be
00000090: 81d4 7abd 83fa 90bd 2b1f 6fbc 9225 213c
000000a0: 9074 b73d 4b0d a3bd a24d 25be e161 2b3c
000000b0: 22f1 16bd 8065 913d 237d 1ebb e6dc abbd
000000c0: 5b13 7e3d 0456 34bd 8919 38bc b682 f23d
000000d0: b335 acbc 9a75 8cbd e226 81be 6c63 1ebd
000000e0: 995f 97be 1453 003d 814f 8fbc fd84 dabb
000000f0: 1f51 78be 4c6b b93d 7a39 f73d 625d 6ebe
00000100: 51ca 88bf 57e6 69bd a970 18bd db5d 913c
00000110: a338 423d c46c 983d 1325 a63c ca2c 71bd
00000120: 9d53 c23c 1ca7 b6bd 4158 743e daaa 6abe
00000130: c812 993d ee7e 15be 9a7d c13c c11b 42bf
00000140: f84d a9bd 967d f93d 1a64 28be a496 983d
00000150: 242d cfbc ff25 46be ba46 2dbd bfe2 64bf
00000160: 4219 2a3d 5498 b23d 891e a53c 8efe bcbd
00000170: 830b 5abd 4e6d 15bc a289 673d 00f7 593e
00000180: 4f8b ab3d 31b7 c4bd 1acf a2bf 467e e6bc
00000190: 5f8e babd eebb 26bd 1561 d93d d85f 92bf
000001a0: a866 20be 78f5 e2bd 05d3 3abc 6a59 f03c
000001b0: 5fc3 f9bc edd3 36bc 1507 68bc bca5 2abe
000001c0: b335 efbd d880 c33c 0a53 34be 9605 9dbd
000001d0: 120d ea3d af78 9abc 2c93 e93d 5032 e4bf
000001e0: a564 b1bc 1594 27bc 279b 5abf 8569 b63d
000001f0: 6fba 803d c3e5 5bbe fed0 c0bd 27bc 82bf
00000200: 14b0 e6bd e46e 373d 6630 2a3b 376e d7bd
00000210: baed 7d3c 8763 e3be e060 e93d 6ac2 d13c
00000220: a11c 52bd 9651 0e3d 9e6e ffbb 7041 89bf
00000230: a609 503d cc94 ea3d 000b babc 5731 663d
00000240: 242b c13d 1fa1 debc e24c 24bc 9342 03be
00000250: 4f0f 31be f597 16bd c063 91bf 32d6 ba3b
00000260: c62a 38bf 7a1c b63d 9bc7 5ebd f046 b53d
00000270: 3482 3d3d a4af e23d d075 32bd 9b65 33c0
00000280: 4fdf 0c3d 935c dabe 4a08 063d 5e6e 48bf
00000290: c81e 1b3b a38b 61bc 5b8e 6e3e 8571 21be
000002a0: 52a2 8ebf cbca 053d f1ef f8bd 33c7 83bf
000002b0: e0e1 15bd 0c8e a2bf a174 3039 9491 693c
000002c0: 28c3 94bc d68a a43d d618 d33c 9849 00bd
000002d0: 00aa 66bd 1c32 8bbf 4b3f 9abd 4bc1 983d
000002e0: 760d 45bf 3eab a0bd 9331 8dbd 7214 22be
000002f0: bb0b 23bd a3b6 26bf b881 c03d bcc0 63bd
00000300: 7a6e 913d da67 4cbf 4e67 86bf d3e0 223e
00000310: 8307 09bd 6403 3fbf a0ae a23d 91ae 10bc
00000320: 5d36 793d eda0 88bf 70e0 7bbf d7f6 213b
00000330: e299 54bb 633f 80bc 58f9 8fbc a08f 0a3d
00000340: 0013 d93d dbee 023c e36f 8bbd 124f 563d
00000350: 08e4 d8bc 36d7 763d 9a51 4abe ffc4 b43d
00000360: 7772 55bd 48d1 05be 726e 6fbd e839 7abd
00000370: 265b d6bc 95af 7d3d 833b 673c f4a4 01be
00000380: 56a2 a2bd b74e 68bd f79c 7cbe b6b6 ba3c
00000390: d68d 383d 14e5 9fbd 4410 5a3d dd18 7ebf
000003a0: e0ee d53c 7e0a bc3c b4cd 263d 208a d33d
000003b0: 2ebf d83d 03df f03c 0a4f e7be 2a43 033e
000003c0: f3d6 ebbe b0a1 123c d157 96bf a484 613c
000003d0: da42 4fbd 9a3a 063e 6c33 1bc0 b92f 9fbc
000003e0: 246b 273d a443 a7bd 97f0 083e 4b9e 1fbe
000003f0: ae38 53bd 350d 1ebf eaa4 82bd dbf5 06bd

fc3.bias f4 [4]
-4.6383567 -2.3049939 -2.0331883 -2.2744048
00000000: 6b6d 94c0 0585 13c0 c21f 02c0 d98f 11c0
